models/maml_ad.pt (torch, 847873 bytes, 10 tensors)

module.series_fc.0.weight f4 [200, 500]
00000000: 5531 ccbc 6a97 013d 40ff 60bd 9550 52bd
00000010: b77c b1bc 304a 96bc 128a 80bc 8e9e 8d3d
00000020: 0906 21ba 833a 09bc 964a a9bc b814 233d
00000030: f50f 91bd 5492 57bd 0848 b8bb 83f9 4fbc
00000040: 23fe 5b3c c55a b03c e0e9 fdbc a4bf acb9
00000050: db1b 653b 5f52 e43c 22f7 963c 831a 103d
00000060: 73f8 fe3b 2ad3 cb3a 0ae4 0a3c ec68 5cbd
00000070: 3464 813c fe9b 943c 3847 9fbc 3eb4 ae3c
00000080: 4085 bcbc 7edd 1c3c 198e 86bd 25f4 9dbd
00000090: 19bd 9a3c 0ec7 213d 4121 1e3d a37d 17bd
000000a0: 9540 39bc 757a a8bd d64f 54bc 5625 91bd
000000b0: f0cb 46bd c5de 4dbd fe9c 323d f7be c0bb
000000c0: f1ca 32bd d2ab a4bb 2d64 54bc 9bcc 85bb
000000d0: ec3a 4f3d 8cbc a43a 6f23 6e3d ddbb 25bc
000000e0: a1ac 543b 2f83 2bbd 1223 9abc b657 2bbd
000000f0: 164c c33b 235b 80bc 285f 94bc 7fee a9bc
00000100: 5c20 e239 ca0d 67bb 6b34 1a3b f4c4 c83b
00000110: 6faa 853c 7395 b43c 49c7 fbbc cb6d d0ba
00000120: 818b 583d c410 93bc 1c70 143d fc37 7d3c
00000130: 259b 393c 69cf 0ebd 02bf d43c aa61 0cbd
00000140: 0419 0fbd a036 7b3d 0221 fb3b c3f4 fabc
00000150: ef58 923c a3ff 6b3b 095e 293c 7157 c3bc
00000160: 8ec0 0e3d 3007 a0bc 5d8b c93c ce03 203d
00000170: be26 603d d558 7d37 7afe 6dbd 2450 f4bc
00000180: c595 373c 181d b63c b666 f9bb 9cdb 85bb
00000190: 3e61 d63b 0769 453d 22bd 58bd 4d65 e7ba
000001a0: 05a0 34bd 5c30 66bd 53d9 53bd 7138 0bbc
000001b0: 10f8 cabb 83d6 55bc ace7 11bd 1e78 563d
000001c0: 8f2b 01bb 28ab d83b 2e78 653d a9e9 72bd
000001d0: 636b deba c8cc 16bc 2508 c9ba c46a 1b3d
000001e0: faac b0ba 0717 10bd 6fa9 2fbd ef45 53bb
000001f0: cd47 19bd 7a35 6cbc 7ec2 36bd 3901 e03b
00000200: bfc7 ca3c ce7c 87bc 05be b5bc 47b1 6abc
00000210: 0413 1fbd 9b22 1cbc 4e04 b7bb f371 f3bc
00000220: b9bf 703d a2ed 9b3c 1d9e 1e3d fb67 9fbc
00000230: f90b 6a3d e92f eabc a064 363c aca5 2cbd
00000240: bb9e 8cbd 4508 36bd e6c5 043d a6e3 21bd
00000250: 1803 56bd c134 85bc ea63 b0bd a7ff 93bd
00000260: fcdb 573c 6788 083d 0a49 623d 6e27 1bbd
00000270: 8e54 b43c f31b 54bd 8a6e 773b 6119 e7bc
00000280: ea83 31bc 2145 46bb f6dc 3ebc 89bb 3dbd
00000290: 8a62 0bbd fa3d 19bc 749b 5c3c 6c2a 02bc
000002a0: c8cb 4dbc aeb7 0bbd 039a 173d d953 08bc
000002b0: 77f9 a23d d249 82bc afe5 39bd fc12 833c
000002c0: 2dcc 3dbc 434b 41bd fb1d 713d e938 48bd
000002d0: 0546 d33c 501b d23c 20be 0a3c 8f97 9f3c
000002e0: 60e2 423d 988c 203d 95b3 4f3c aaa1 0dbd
000002f0: 3297 bdbb fc85 463d 437e 143d 3deb 433d
00000300: 16b7 56bb 565e dbbc 0b20 88bd 278e 31bd
00000310: 37a6 54bd fde9 4f3d b184 143b 442a e73c
00000320: 5c17 883c 26ef 1aba 2e4a 34bd b22c 6bbc
00000330: 30a7 8fbd 1fde 91bc a3f2 1abd 0c5a 0e3d
00000340: b96e b1bc 6b83 e1bc d019 8fbc 70aa 083d
00000350: a96d f8bb ea39 78bc 905e e7bc ebd2 fabc
00000360: 2fb8 9bbc e579 d0bc b91b d53c 286d b4bb
00000370: cf05 9b3c fe4e 413d ebf8 493d aa19 d33c
00000380: ddc5 51bd 63ab 143d cc94 8fbc 9b42 513c
00000390: 0684 683c 6a9d aebc 5e90 08bd 4a2e 1d3c
000003a0: a02d 79bc e3e3 943d 7779 0c3c 498b 1ebd
000003b0: 3bbf 9e3d 4bbf 00bd 5273 d9bb f855 6fbc
000003c0: eee1 6dbc 614e 9abb 0ebf 4ebd 5643 8c3c
000003d0: 9cf1 a7bb c414 55bd 2bf9 8abb 1cdb 45bd
000003e0: 4f35 b9bc 3c79 dbbc 9a63 20bd 1361 ffbc
000003f0: 2aa0 533d 1458 50bd 5c7c 71bc dd4e 29bc
-0.024925867 0.03163854 -0.054930925 -0.05134638 -0.021665914 -0.018345922 -0.015690837 0.069150075
-0.0006142562 -0.008375767 -0.020665448 0.03981468 -0.07083122 -0.052629784 -0.005623821 -0.012693766
0.01342729 0.021527657 -0.03099531 -0.0003294918 0.003495923 0.027871309 0.018428389 0.035181534
0.0077810823 0.0015550603 0.00847722 -0.053811 0.01579485 0.01814079 -0.01944314 0.02132618
-0.023012757 0.009574292 -0.06570072 -0.077125825 0.018888997 0.039496474 0.038605932 -0.03698505
-0.011306901 -0.08226482 -0.0129584875 -0.070871994 -0.048534334 -0.050261278 0.04360675 -0.00588214
-0.04365057 -0.0050253654 -0.012963337 -0.0040832288 0.0505933 0.0012568398 0.05813926 -0.010115591
0.0032451528 -0.041873153 -0.018815551 -0.041831695 0.005959998 -0.015668457 -0.01811178 -0.020743607
0.0004313019 -0.0035256022 0.0023529779 0.0061269943 0.01631662 0.02204392 -0.030734675 -0.0015901861
0.052867416 -0.01795233 0.03623973 0.015455242 0.011328493 -0.03486577 0.025969986 -0.034272827
-0.034935966 0.06133139 0.007663847 -0.03063429 0.017864672 0.0036010526 0.010337361 -0.023845406
0.034851603 -0.019534677 0.024602586 0.03906613 0.054724447 1.5100658e-05 -0.058104016 -0.02982337
0.011205141 0.02223067 -0.007611121 -0.0040850174 0.006542354 0.048195865 -0.052914746 -0.0017654091
-0.04409792 -0.056198463 -0.05172093 -0.008497343 -0.006194122 -0.013051632 -0.03562133 0.052360646
-0.00197098 0.0066122003 0.056022815 -0.059304867 -0.001696926 -0.009204097 -0.001533751 0.037943617
-0.0013479285 -0.03517821 -0.042886194 -0.0032237729 -0.03742199 -0.014417047 -0.044619076 0.0068360833
0.02475345 -0.016539004 -0.022185335 -0.014324493 -0.038836494 -0.009529735 -0.00558523 -0.029717421
0.05877659 0.01903421 0.038725007 -0.019458761 0.057140324 -0.028587298 0.011132389 -0.042150185
-0.06866213 -0.04444148 0.032415293 -0.039523743 -0.052249044 -0.016260507 -0.08612807 -0.07226496
0.013175007 0.03333321 0.055245437 -0.0378794 0.022012975 -0.051784467 0.0037755095 -0.028210344
-0.010834673 -0.0030253606 -0.011649361 -0.046321426 -0.03402952 -0.009353155 0.013464797 -0.0079446845
-0.012560792 -0.034110717 0.03701211 -0.008320772 0.07957738 -0.01590434 -0.04538506 0.016000263
-0.011584324 -0.047190916 0.058866482 -0.0488824 0.025790224 0.02564779 0.008468181 0.019481448
0.04757917 0.03919658 0.012677093 -0.034578003 -0.005785846 0.04846762 0.036253225 0.047831763
-0.0032762936 -0.026778381 -0.06646737 -0.043348458 -0.051916327 0.050760258 0.0022662098 0.028218396
0.016612701 -0.00059102697 -0.044016056 -0.014353918 -0.0701431 -0.01780611 -0.037829053 0.034753844
-0.021659242 -0.027528485 -0.017468363 0.033365667 -0.007581432 -0.015150527 -0.028243333 -0.030618152
-0.019008724 -0.025448749 0.026014196 -0.0055061765 0.018923668 0.047194473 0.049309652 0.025769074
-0.051214088 0.03629626 -0.017527007 0.012772228 0.014191633 -0.021315295 -0.033340804 0.009593556
-0.015208632 0.072700284 0.008573881 -0.03870705 0.07751318 -0.03143243 -0.0066360617 -0.014607899
-0.014519198 -0.0047090505 -0.050475173 0.017121952 -0.0051252376 -0.052021757 -0.004241129 -0.048304662
-0.022608427 -0.026791207 -0.039157487 -0.031174218 0.051666416 -0.050865248 -0.014739122 -0.010333744

module.series_fc.0.bias f4 [200]
00000000: 22be c9bc 464e f2bb e770 ffbc dd68 84bd
00000010: 1017 a4bd a947 37bd 014b 4abd 1fa4 82bc
00000020: fc59 e83c 1c4d b7bc b6e9 eebc a145 7c3c
00000030: da42 fcbc 347d 28bd cca5 393c 5ca7 7bbd
00000040: b5d3 1abd 9054 083c 2163 f8bc 645e 06bb
00000050: 2d30 d5bb 0dd2 cd3b b6d4 b13c 1939 0dbd
00000060: 1ad4 423c 77a4 76bd afb1 1abc 98fb a7bc
00000070: e072 8abc bada 0f3d bd62 f8bc dbf3 94bd
00000080: da5c cd3c 6eff 803c b4e8 bfbc 4f3c d6bc
00000090: db05 873b f75d d0bc 8659 dc3b 986e 1bbd
000000a0: bd6f 46bc 80d8 e0bc 79ac fe3c 771e 82bc
000000b0: 640e dc3c 4f70 afbd 7881 663c c76c a639
000000c0: 2884 e8bc c864 8ebd f3ba 81bc ea4a febb
000000d0: 7d2e 2ebd 7c6c d53c 6bc5 4cbc f02a f8bc
000000e0: 1580 683d 7be8 a0bc 2f19 27bd ac20 a3bc
000000f0: 5018 973c 872f ddbc 1f34 33bd 972c abbc
00000100: 5ce0 32bb f979 c33c d3ab f7bc c4f4 42bd
00000110: 7a7d 85bc 2c1d 18bc 735a 25bc 8cf5 6bbc
00000120: f8ea bfbc 45f4 a83c 6f3f 0fbd 3464 02bd
00000130: 906d f7bb 59a1 0dbd 541e 60bd 8ca3 3abd
00000140: 58fd 3ebd f94a 6d3c bca2 663d b5d4 f8bc
00000150: fd54 4ebd 5117 94bc a47f 10bc bc0d e8bb
00000160: d9f8 9fbc d057 c2bc c92e 7bbd f098 8cbd
00000170: 4894 8dbc 4d42 81bd 66e5 bebc 0732 27bd
00000180: e171 8bbd 88d7 c53b a455 34bd b092 59bd
00000190: 8f11 efbc 5232 c9bc 3208 463b acc6 61bc
000001a0: 45e5 2bbd d2f9 5abd 83d2 37bd df2d febc
000001b0: 14ac 53bc 1278 84bd 7296 99bd 25d0 71bc
000001c0: fffc 5ebd 76f8 b23c 8782 3d3c 0b94 603d
000001d0: fbce fbbc 1123 2cbd 9c4c 6cbd 042f a2bc
000001e0: a4f5 5ebd dd27 12bd ba11 d7bc b838 8dbd
000001f0: a920 a8bd c045 8dbc 7c32 82bd 4b86 e3bc
00000200: 4c1a 0fbd 178c 00bd 8a79 f6bc 88e9 dbbc
00000210: fa8e afbd 82b5 39bd 62f6 d6bc a3c7 203c
00000220: 66ed 2bbd c191 fe3b fd6b ddbb 1f97 cc3c
00000230: 01a4 d0bc 811c 65bd fb11 a53c cf93 883c
00000240: 278e c6bb 85fb 0abc a51d 46bd 93c4 2dbd
00000250: 236d 98bd 2097 45bc 4214 84bd 320d 78bc
00000260: c68b 133d 96ad 0b3c 354f 90bd 1bf7 2fbd
00000270: 073a a23c 399a ac3c 08d1 40bd b686 1cbc
00000280: b603 62bd 2e7a 833c d93b 18bd 2d77 2bba
00000290: ac54 29bd 22e7 e13b adc4 47bd 4729 92bb
000002a0: 133c 4e3c 0faf 61bd e199 a83c 14c5 44bd
000002b0: cc76 31bd f16e 99bd 2fe2 49bd fd6a 8bbc
000002c0: 6c59 8ebd 0044 a1bd 65b4 ce3c bf58 16bd
000002d0: dcd6 ecbc dd9b 87bc 1260 81bd 32ee d7bc
000002e0: 077c 21bd 1c87 1bbd 5bbc 5bbd 038b 993d
000002f0: 2b90 93bd 89ed c53c 6dd9 64bd 094c b2bc
00000300: 77ed 46bd 3307 d2bb 0a55 01bc 3129 cfbc
00000310: c1da 4dbb bb17 463d 1960 19b8 21a4 6bbd
-0.024626795 -0.007394585 -0.031181766 -0.064653136 -0.08012211 -0.044746075 -0.049387936 -0.0159474
0.02836322 -0.022375636 -0.029164176 0.01539746 -0.030793596 -0.041135028 0.011331033 -0.061438903
-0.037799556 0.0083209425 -0.030320706 -0.0020503039 -0.006505987 0.0062811435 0.021707874 -0.03447828
0.011891389 -0.06021544 -0.009441777 -0.020505711 -0.01690048 0.035120703 -0.03032052 -0.07273074
0.02506869 0.015746798 -0.023426391 -0.026151804 0.004120571 -0.02543543 0.006724539 -0.037947267
-0.012111601 -0.027446985 0.0310881 -0.015883667 0.02686233 -0.08566343 0.014068954 0.00031743033
-0.02838333 -0.06952816 -0.015836215 -0.0077603953 -0.042524803 0.026052706 -0.01249824 -0.030293912
0.056762774 -0.019642105 -0.0407955 -0.01991304 0.01844421 -0.027000202 -0.04375088 -0.020895286
-0.0027294373 0.023861872 -0.0302333 -0.047596708 -0.016295183 -0.009284299 -0.010092366 -0.014401805
-0.023427472 0.02062429 -0.034972604 -0.031833842 -0.0075509027 -0.0345777 -0.054716423 -0.045566127
-0.046628326 0.014483207 0.05630754 -0.030374864 -0.05037402 -0.018077524 -0.008819494 -0.0070817154
-0.01952784 -0.023723513 -0.061323915 -0.06865108 -0.01728262 -0.06311474 -0.023302745 -0.040819194
-0.0680883 0.006037656 -0.044026986 -0.053118408 -0.029183177 -0.024560127 0.0030217287 -0.013780277
-0.041966695 -0.053460903 -0.044878494 -0.031027732 -0.012919445 -0.06468214 -0.07499398 -0.014759098
-0.054440495 0.021846991 0.011566765 0.054828685 -0.030738344 -0.04202563 -0.057690248 -0.01979781
-0.05443348 -0.035682548 -0.02625357 -0.06895584 -0.082093544 -0.017245173 -0.063572854 -0.027773997
-0.034937188 -0.0313836 -0.030087251 -0.026844755 -0.085721925 -0.045339115 -0.026240531 0.009813222
-0.041974448 0.00776884 -0.006757258 0.024974404 -0.025468828 -0.055935387 0.020150175 0.016672043
-0.0060594263 -0.0084828185 -0.048368115 -0.042423796 -0.07442691 -0.012059957 -0.06449176 -0.015139865
0.03602197 0.008525273 -0.070463575 -0.042960268 0.01980306 0.021069633 -0.047074348 -0.009553602
-0.05517932 0.01604947 -0.03716645 -0.0006540891 -0.041340515 0.0068940083 -0.04877155 -0.004460487
0.012587565 -0.05509859 0.020581188 -0.04803951 -0.043326184 -0.074918635 -0.04928797 -0.01701879
-0.069506496 -0.07874298 0.025232503 -0.03670573 -0.028911047 -0.016553814 -0.06317152 -0.026358698
-0.039424922 -0.037970647 -0.053646427 0.074972175 -0.07205232 0.024161117 -0.055871416 -0.021764772
-0.048566308 -0.0064095496 -0.00789381 -0.025288196 -0.0031410905 0.048362475 -3.656754e-05 -0.057529572

module.ano_fc.0.weight f4 [50, 100]
00000000: ef0e 8e3d 6625 063e 0275 12bd 7c96 853d
00000010: 988d 85bc 13c6 d0bd d7bf c63d 83a1 a7bb
00000020: 64fd 9e3c 5da3 ce3b 79d8 b83c 5799 db3d
00000030: 0b19 0c3d 2645 a4bd 1700 6e3d ea16 553d
00000040: e37d a23d 0fb9 a9ba 2097 393d e3e3 7e3d
00000050: 3be6 ddbd 27fb 15be 6377 d5bd ffe0 a8bb
00000060: b4bf 4bbd e727 7abd 2e52 923d d55a 45bc
00000070: fcdf b73d 0da8 78bb 9a6e cc3d c6d4 8d3d
00000080: 1b0b 3b3b 7d01 fbbc 98de 20bd 4c69 42bd
00000090: c370 f63d 9a33 a13d 441c b7bd e5d2 b1bd
000000a0: b039 383e 39d4 2fbe d854 9abd 6fd5 2dbd
000000b0: e5e9 153e ea55 4ebd 7590 723d dd44 d93d
000000c0: c5ee 28be 357d 2ebc 4fc2 7a3b 8e6c d9bd
000000d0: 0cbd 123e 9342 dcbd b8c9 9e3d 4063 ce3d
000000e0: 0c95 f8bd 99aa 05be f929 cb3c 5504 c8bd
000000f0: fb23 743b ed7b f93d 8a4b 013e 477c dcbd
00000100: 5e7e 86bd b061 fbbd c4e7 163e 4114 59bb
00000110: 137f 443a e7e2 31bd 012b 553c 5540 c23d
00000120: 1882 97bc 0054 33bb a039 61bd 8a7f 8b3d
00000130: 3a71 13bd 1d32 92bd d318 643d 2375 72bd
00000140: 2348 ba3c f342 093c ce22 9cbd 267f 333c
00000150: b143 e5bd 3e30 07bd de9a 1dbd 0f1e 19bd
00000160: 6fe9 023e c3ff 043d 9cb8 65b9 8e3d e53d
00000170: b53c 863c 44d5 b23d 7b3b 153d 53db babd
00000180: 69d3 cbbd 726f e33d 9b93 82bd fe8a edbc
00000190: 7263 403d 5c97 2b3d 3ce1 54ba 9654 95bc
000001a0: 1114 353d 1134 b7bd 9a24 823d 4da1 b13d
000001b0: 2c70 ac3c bc35 ad3c a14d ff3c 6f10 d43d
000001c0: 5ead 6f3a 9cae 063b 2d14 a4bd 3c30 793c
000001d0: 25b3 44bc b6e4 d3bc 0bfc a43d 7ab8 a73d
000001e0: c582 9abd 1051 8ebd c4ad ef3c 5956 733d
000001f0: e3f4 eabb 3ec8 98bc b6b5 09bd 7168 9c3d
00000200: 93ae 623d 30a8 043d 883d f93b 1e27 a53c
00000210: 8df5 92bd e055 9e3c ebcc f23d 690a 84bb
00000220: 842c 33bd 45c8 893d a940 11bb 5ac4 8ebc
00000230: ae79 be3c d101 cf3c b82e 2fbd 290e ae3d
00000240: fb9a 2bbd ef79 f1bc 8caa 773d 07d5 13be
00000250: 5477 1bbd 6b78 a33d 5608 a03d 94cc fcbc
00000260: 1a71 a8bd c735 53bd 4620 0f3d 52b9 90bd
00000270: a232 b33d b7f4 8b3d 67a2 773d cfcc ad3d
00000280: 17d0 933d 33fe 60bd ebb8 38bd 3280 a13d
00000290: b995 3d3d 13f5 c83c 0c36 76bd 768a 8ebd
000002a0: ad7b f3bd 8aff d83c 92cf b8bb 4677 0c3d
000002b0: 52f6 073b 3645 5dbd 4582 abbb 05b1 ac3d
000002c0: 0ca9 e23d 0f34 0ebe 9875 af3c cbbf d1bc
000002d0: f1d8 9a3d adcb 0fbd 36c0 85bd 8da2 08bd
000002e0: b8a2 b13c 94ce 6bbd e6dc e13c e260 a43d
000002f0: f5ca 20bc c3c5 07bd e911 63bc d546 0dbd
00000300: 2169 26bd 13b1 db3d c0b0 53bc 6031 32bd
00000310: 679e 30bc a2ef 363d 4c60 80bd a04b c8bd
00000320: 1ffd a3bc e61b 803d 5c28 8e3d 2460 cbbb
00000330: 987d a5bd fc13 063e bc06 04bd 0108 823c
00000340: ea8b f8bd 6e3e 07bd ef7f febc 26cf 28bd
00000350: 09b7 643d 8643 c8bd 544d d8bd 01c5 693d
00000360: 9927 e9bd 0707 c13d 6530 353d 15ec 33bd
00000370: fe48 643d fa44 2fbd 9cf7 323d fb55 b4bc
00000380: fad4 9a3d 66aa b23d a63e 493d 08fc 22bc
00000390: 7c54 dd3c 1e69 10ba 3b88 07bc bb87 343d
000003a0: e8e0 ef3d b712 41bd 1045 0a3d cfeb b43d
000003b0: 58b2 ad3c 09b8 e5bd 75bd c5bd 30ed ee3d
000003c0: d5f7 133d e68d 843d ed88 35bc 2bf9 f23c
000003d0: 21a5 26bd 8bd6 ab3d 1800 67bd 03f3 91bc
000003e0: 6098 163d 67de cb3c b879 8dbc 9963 ac3c
000003f0: f479 79bd e671 683d e0e1 923c 2228 18bc
0.06936442 0.13100204 -0.03575612 0.06522843 -0.016302869 -0.1019403 0.09704559 -0.0051156892
0.019407935 0.0063060955 0.02256416 0.10722607 0.03420357 -0.080210015 0.058105554 0.052023806
0.07934167 -0.0012948829 0.04531014 0.06222905 -0.108349286 -0.14646588 -0.10423162 -0.0051537747
-0.04974337 -0.06107321 0.07144581 -0.012045582 0.089782685 -0.0037941963 0.09982033 0.06925349
0.0028540555 -0.030640358 -0.039274782 -0.0474637 0.12033226 0.0787117 -0.08940938 -0.08682803
0.17990756 -0.171708 -0.07535714 -0.042439874 0.14640005 -0.050374903 0.059219796 0.10608838
-0.16497333 -0.010649969 0.003826279 -0.10616408 0.14329928 -0.107548855 0.077533185 0.10077524
-0.121378034 -0.13053359 0.024800288 -0.09766451 0.0037252891 0.1218184 0.12626472 -0.107658915
-0.065670714 -0.12274492 0.14736849 -0.0033123645 0.0007495742 -0.04342928 0.013010741 0.094849266
-0.01849465 -0.00273633 -0.054986596 0.068114355 -0.035996653 -0.071384646 0.055687737 -0.05919374
0.022739476 0.008377778 -0.07623826 0.0109556075 -0.11194552 -0.03300499 -0.03847777 -0.03738218
0.1278436 0.032470476 -0.00021907914 0.11193381 0.01638637 0.087320834 0.036433678 -0.09123864
-0.09952433 0.11105241 -0.0637581 -0.02899694 0.04696984 0.041892394 -0.0008120721 -0.01822881
0.04420859 -0.08945478 0.063546374 0.08673344 0.021049581 0.021143787 0.031164946 0.10354697
0.000914296 0.0020550853 -0.08011661 0.015209254 -0.012005602 -0.025865894 0.08055886 0.08189483
-0.075444736 -0.06949055 0.029257663 0.05940852 -0.007170306 -0.01865017 -0.03362056 0.07637108
0.05534227 0.03238696 0.007606212 0.020160254 -0.07175741 0.019328058 0.11855491 -0.0040295613
-0.043743625 0.067276515 -0.0022163785 -0.017427612 0.02325138 0.02526942 -0.042769164 0.084987946
-0.041895848 -0.029477088 0.06046538 -0.14436732 -0.037955597 0.07981952 0.0781409 -0.03085927
-0.082246974 -0.051564958 0.034942888 -0.07066597 0.08749892 0.06833785 0.060457613 0.0848633
0.07217424 -0.054929923 -0.045098227 0.078857794 0.046285365 0.024530923 -0.060110137 -0.06960003
-0.11888824 0.026489038 -0.0056399787 0.034293436 0.0020746184 -0.054021083 -0.005234035 0.08432201
0.110673994 -0.13887046 0.021418378 -0.02560415 0.075609095 -0.03510635 -0.06530802 -0.033358146
0.021684036 -0.057570055 0.027571153 0.080262914 -0.009814014 -0.033147585 -0.013859251 -0.03449138
-0.040627602 0.107271336 -0.012920558 -0.04350412 -0.010779954 0.044662125 -0.06268367 -0.09780049
-0.020018158 0.06255321 0.06941292 -0.006206529 -0.08080596 0.13093561 -0.032232985 0.015872957
-0.121360615 -0.033018522 -0.031066863 -0.041213177 0.05583862 -0.09778504 -0.10561624 0.057072643
-0.11384506 0.094251685 0.044235606 -0.043926317 0.055733673 -0.04279039 0.04369317 -0.022013655
0.07560153 0.08723907 0.04913201 -0.009947784 0.027017824 -0.0005508828 -0.008272226 0.044074755
0.11712819 -0.04713699 0.03375727 0.088340394 0.021203205 -0.112167425 -0.09655277 0.11666334
0.036125023 0.064723775 -0.011080009 0.029659828 -0.040684823 0.0839053 -0.056396574 -0.017816072
0.03676641 0.024886323 -0.017269954 0.021043586 -0.06090732 0.056749247 0.017929971 -0.009286912

module.ano_fc.0.bias f4 [50]
00000000: 3901 15bd a228 d8bd 6b2c 9f3d 1396 2f3b
00000010: e68f c23d 1e34 c1bd 43d9 b3bb c43f 803c
00000020: fea2 f63c fa83 f43c 7496 803d efb1 8b3d
00000030: fc93 fa3c 19dc 6e3b 3b21 8fbd ea11 c23c
00000040: 02dd e53d 0c28 ff3a d1d5 e53d 4658 bfbd
00000050: e4ba df3d 534d a2bd 2097 8ebc 376b c73d
00000060: 2128 d5bc 80d6 aabd f8a7 c93c 9bc1 a93d
00000070: 8da8 3a3d a045 12bd b949 e53d bdf3 5fbc
00000080: b818 0abd 9c01 0b3e 0781 32bc 8cc4 4a3d
00000090: 5f65 ce3c 5c15 9e3c 8c25 8fbc ae77 4b3d
000000a0: feb7 1dbd 51ae 083e 2307 9cbd b0cd a93d
000000b0: 4de0 b23d 2064 83bc d279 313d f15d e93d
000000c0: 14bb cfbc 1090 2b3b
-0.03637812 -0.10554625 0.07772144 0.0026792332 0.09500103 -0.09433769 -0.005488546 0.015655406
0.030107018 0.029848088 0.06278697 0.068210475 0.030588143 0.0036447106 -0.0698876 0.023690183
0.112237945 0.0019466891 0.11222423 -0.09343009 0.109243184 -0.07924905 -0.017406046 0.097372465
-0.026020112 -0.08341694 0.024616227 0.082888804 0.0455709 -0.03571093 0.11195702 -0.013668952
-0.03371498 0.13574833 -0.01089502 0.049503848 0.025194822 0.019297294 -0.017473958 0.049674682
-0.038505547 0.13347746 -0.07618549 0.08291185 0.08734188 -0.016038954 0.043329068 0.11394871
-0.02535776 0.0026178397

module.final_fc.0.weight f4 [1, 250]
00000000: 4fea a43b f6e6 303a 825f b1bd cda9 ebbc
00000010: 936f 11bd 466a 543d cfb5 993d c6ba 43bd
00000020: 9ceb 513d 9d31 903d 86e7 6cbd 831c 6f3c
00000030: 0530 9e3d 41da a7bc f1f6 4f3d f6d1 77bd
00000040: acfa dbbc e6ce 773d 0bf6 b3bc 9306 8c3d
00000050: fb8f b63d a445 2e3d 99c0 233d 23b2 0f3d
00000060: bafc 753d 935d 53bc c50c 32bd 1680 863d
00000070: 1819 26bd 779a b53d eef4 793d 0b1b 3bbd
00000080: 310c 963d b227 c13d 8cf6 b63d 3ec5 b8bc
00000090: 965e 883d 1711 1abd 4ed3 ae3d d102 473d
000000a0: 8968 8f3d ee70 a63d 4447 6a3d 40a6 e13d
000000b0: a87f de3c a3f5 56bd 504e c43d 915e 9f3d
000000c0: ea19 383d 8c1c e5bc 2d9d 02bc c6a1 dabc
000000d0: 8b2d 273d a4d2 793d 22d9 83bc fe28 53bd
000000e0: d498 a23b 2a4f 39bd 4f50 07bd d11e e9bc
000000f0: 65cf f43c 4623 f13d 6dd2 e6bc 2774 9d3d
00000100: b97d 473d bd04 6a3d 4eff a4bd 2905 74bd
00000110: 3f94 a53d ce54 a93d 5d22 833d 02f9 fabc
00000120: 7f87 893d c9de 833d 81a9 afbc 3811 853d
00000130: 8b8d 8fbd ebd8 f03c 4123 02bd 17a1 a9bc
00000140: a4cc e5bc c44a 96bc 469f 793d fb02 cb3d
00000150: 5950 72bd 8fa3 d83d fc03 40bb e1fa 14bd
00000160: e6b7 733d 192c 673d 5de3 8dbd 719e 39bd
00000170: b9bc fbbc afc3 33bd 19ae c0bc e51e cf3d
00000180: 1fd4 bdbd 6135 bc3d 789e 8b3d 9c2b 3cbd
00000190: ef59 86bd 6000 273d f788 123d 3864 04bd
000001a0: 421d 933d 2384 48bd 4be2 283d 08bc d83d
000001b0: 9d3d 6c3d 637a 893d 95a9 cabc 2a29 9b3d
000001c0: 5442 7fbd b6c4 493d d850 363d f50f 9e3d
000001d0: d2d5 ce3d d961 13bd fd3d 74bc b4f0 16bd
000001e0: be25 35bc 7a40 89bd 7e48 d9bb 1bca 0fbd
000001f0: 1068 22bd 60a6 58bd 810b 56bd c949 c3bd
00000200: 38d7 e33b 855e 24bd ff6e 45bd 863b 883d
00000210: 951a 48bd 3034 c4bc 0e29 73bd 82a9 e9bc
00000220: ad52 d43d 4be6 11bd 1a21 0fbc df84 fe3c
00000230: d9bd 90bc 0769 bfba 7330 463d 51cb 343d
00000240: 4967 3ebd 1d7e 54bc a283 29bd adce a93d
00000250: c245 32bd af61 5fbd 4358 79bd c324 cc3d
00000260: 4cc7 e93d 1667 a23d c210 703d 1c0a 20bd
00000270: be4e bb3d 69e2 6f3d b572 fcbc fbf5 503d
00000280: 481d b3bc 473c 863d 67dc 19bd ff87 923d
00000290: 85fc d23d 5e3c 97bd 3348 a33d 97a1 f0bc
000002a0: 3420 013e 1d27 5bbd 5dd5 993d a780 8e3d
000002b0: a2b1 ee3c 39b4 55bd 5606 303d b156 0b3d
000002c0: d23e e8bc 7a78 62bd eee7 8a3d cb2b 5dbd
000002d0: 456b 8f3a f39e e23d 8eb0 65bd f39d 85bd
000002e0: f196 7ebd eb58 adbc 077f 29bd 2cb7 c73d
000002f0: 35de 5abc f59b be3d 6b62 28bd a394 773d
00000300: 5bf2 823c 9953 d33c 522b 3e3d 3b5a 94bd
00000310: c9e1 21bd 9174 643d 103d 28bd cf01 83bd
00000320: 8f1f 59bd 92c8 20bc 6775 033d af26 7f3c
00000330: bcb6 8fba 48d7 97bb ce95 27bc a942 663c
00000340: 815f 73bd 171c 723d fc80 133d 3659 c03c
00000350: 043c 8d3c 44e1 bd3c 6869 5dbd e946 823a
00000360: e0ab d23c 7ff2 b6bb 390f c23c 364d 74bd
00000370: ff79 ca3a 4f18 3d3d fcab d53d 1e1b 9b3d
00000380: 9606 813d 285f 56bc e92f 3abd b4d6 df3c
00000390: ca28 aa3c a2d4 a93b c1d4 883d 3967 323b
000003a0: d0cf 033d 8b67 bb3c a2cd 86bd 2c30 d1bc
000003b0: f70a c43c 5a6b adbc f128 05bd 782d 503c
000003c0: 81ce abbc 6f0f 183d f22b 9bbd 8ba3 e5ba
000003d0: b9b2 41bd 1af8 a4bd ec85 08bd 4a15 c13c
000003e0: 1e9c 3c3d 645f 22bd
0.0050328146 0.0006748283 -0.08660795 -0.02876749 -0.035506796 0.051859163 0.0750538 -0.047785543
0.051250085 0.07040713 -0.057837985 0.0145942 0.07724003 -0.020489814 0.05077261 -0.06050297
-0.026852928 0.060500048 -0.021967908 0.068371914 0.08914181 0.042546883 0.039978597 0.035081994
0.060055472 -0.012900728 -0.04346921 0.06567399 -0.040551275 0.088673525 0.0610246 -0.045680087
0.07326544 0.094313994 0.08933744 -0.02255499 0.06658666 -0.037613954 0.08536397 0.04858667
0.070023604 0.081270084 0.05719687 0.11018038 0.02716048 -0.05248035 0.095852494 0.07781709
0.04494659 -0.027967714 -0.007972044 -0.026688468 0.040814918 0.0609919 -0.016094748 -0.051552765
0.004962066 -0.045241512 -0.033035573 -0.028457077 0.02988405 0.11774306 -0.02817651 0.0768817
0.048703883 0.057133425 -0.08056508 -0.059575234 0.08084916 0.08268128 0.06403039 -0.030636314
0.06715297 0.06438977 -0.02144313 0.06497425 -0.07009419 0.02940031 -0.031771902 -0.020706696
-0.028051682 -0.018346198 0.06094291 0.09912678 -0.059158657 0.10578071 -0.002929925 -0.03637207
0.05950155 0.05643854 -0.06928132 -0.045317117 -0.030729638 -0.04388779 -0.023520516 0.101133145
-0.092689745 0.09189869 0.06817335 -0.045940027 -0.06560122 0.040771842 0.03577515 -0.03232214
0.07183315 -0.04895414 0.041231435 0.10582739 0.057675947 0.067127965 -0.024739066 0.07576211
-0.062319115 0.049259864 0.044510692 0.07717887 0.10099377 -0.035981987 -0.014907357 -0.036850646
-0.011056362 -0.06701751 -0.006630956 -0.035104852 -0.039650023 -0.052893043 -0.052257065 -0.09535558
0.0069531463 -0.040129203 -0.048201557 0.06651978 -0.048853476 -0.023950666 -0.059365325 -0.02852321
0.10367332 -0.035620015 -0.008735919 0.031069217 -0.017668651 -0.0014603444 0.04838605 0.04413921
-0.04648522 -0.012969521 -0.0413853 0.082913734 -0.043523557 -0.054536518 -0.06087519 0.09967949
0.11414966 0.07929818 0.05860973 -0.03907214 0.09145878 0.05856553 -0.030816415 0.051015835
-0.021864548 0.06554466 -0.037563708 0.071548454 0.103020705 -0.07384561 0.07972755 -0.029373927
0.12609941 -0.0535041 0.07511399 0.06958132 0.029137436 -0.052173827 0.042974792 0.034018222
-0.028350268 -0.055290677 0.06782518 -0.053996842 0.0010942003 0.110654734 -0.05607658 -0.06524267
-0.062155668 -0.021160563 -0.04138091 0.09751734 -0.013358642 0.0930709 -0.041109484 0.060444485
0.015984705 0.025796698 0.046428032 -0.072437726 -0.039521966 0.05577523 -0.04107386 -0.06396829
-0.053008612 -0.009813445 0.032094385 0.015573188 -0.0010964493 -0.004633818 -0.010228587 0.014053979
-0.05941725 0.05910882 0.03601168 0.02348004 0.017240532 0.023178704 -0.0540556 0.0009939346
0.025716722 -0.005583107 0.0236889 -0.059643947 0.0015447735 0.04616576 0.10433194 0.075735316
0.06300084 -0.01308421 -0.045455847 0.027324058 0.020771403 0.0051828185 0.066812046 0.002722217
0.032180607 0.022876522 -0.0658219 -0.025535665 0.02393101 -0.021169353 -0.032509748 0.012706153
-0.020972492 0.037124094 -0.07576741 -0.0017520053 -0.047289584 -0.08055134 -0.033330843 0.023569722
0.046047322 -0.039641753

lrs.0 f4 [200, 500]
00000000: 4c41 1e3d 6c0d 8dbb 8fa9 1cb9 4566 c6bc
00000010: c9ae 1e3d 5ee7 263a 742d 9abc a3b6 dc3c
00000020: 0540 c1bc 8c8b 87ba c2f3 75bc 46fd dcb8
00000030: 6d80 a8bc 16a6 8cbc dc94 5cbb d039 15bd
00000040: 0e88 9eb8 a851 9dbc 9cc4 b3bc 62e4 7abc
00000050: 3997 a43c 09e6 b1bc 15f1 5fbc 7a98 a2bc
00000060: 0197 70bc 09b1 63bc 45c7 323d 035f bf3b
00000070: 05ab 0f3c 3639 ba3c 85f8 65bc 67e9 9dbc
00000080: ed04 363d 4e56 113d 6164 fabb d67a 0f3b
00000090: a06e 43bc 658f 81bc 5be9 26bd 2602 123d
000000a0: 7f4a ad3b 230c 0cbc 6d84 c9b9 91cb 84bc
000000b0: f9b3 483d 0cc3 933c 0bb5 d23a 86e1 5c3d
000000c0: c0c7 1f3d 250b 12bc 7538 68bc 14f0 90bc
000000d0: 383b 78bc c44c 19bd 628e 9ebc eb92 82b9
000000e0: 5f0b 3fbc 8f54 b73c fa8f 3abc 1a8d 2b3d
000000f0: f9b6 0c3d bd23 44bc 6e8f c9bb a1ff 61bc
00000100: c703 c4bc 3d7f 7cbc 78e2 6ebc fa9b 02bc
00000110: ad65 07bc eb8d 10bd 9e9c f0bb 5551 153c
00000120: 65ad 4c3c 6a60 97bc e83d 10bb d077 aa3b
00000130: 8971 a6bc e718 a6bc 4d0c dabb d6d3 bcbc
00000140: 2234 86bc 6239 01bc 5788 53bc de14 babc
00000150: 5244 34bc fb8e 593d 46f8 8ebc 29ef aabc
00000160: 26cf 34bc 0ca8 8bbc f560 d13c e35a 8d3c
00000170: a153 dfbc 3673 3d3d 9abb 373d 8e19 88bc
00000180: cf4a babc adca 84bc 4666 58bc 7152 c0bb
00000190: fc47 98bc f58d 69bc c933 79bc 02c6 d3bc
000001a0: 1568 aebc 4467 b1bc 1d72 99bc 2953 e2bc
000001b0: 3347 d6bc 0ca7 ad3b 6d5a 5cbc 575d 8cbc
000001c0: f75e 78bc 3b92 74bc 7c0a 78bc d250 da3b
000001d0: d928 33bc 153a 9cbc f733 b7bc ef14 90bc
000001e0: 2e22 94bc 98c6 85bc eb30 73bc a262 8dbc
000001f0: f2d3 e3bc a48f bebc c7f4 7bbc e0cd 00bd
00000200: 49eb 04bd 96d2 40bb f41e 14bc cdb8 99bc
00000210: 6118 b9bc ee60 83bc 1fc4 f3bb 0c2f c3bc
00000220: 0a11 a5bc e4a7 8cbc 521c f3bc a6fd c0bc
00000230: 2f32 74bc 811c 0cbd 0ee7 71bc a53f c6bc
00000240: 9dc7 f13b 83aa 95bc 5d95 8bbc 6bea ddbc
00000250: bd8f 8bbc 7af4 62bc 824d b7bc 7048 05bc
00000260: f006 16bd b224 68bc dcc0 b0bc 4c45 b0bc
00000270: 8411 bebc 4c59 8ebc b0e4 29bc 43f7 fe3b
00000280: e87d b13b ae9e 8bbc 5775 6cbc 71a7 0dbd
00000290: 8b16 0abc 7df7 bcbc 5cd8 99bc 2cc8 91bc
000002a0: 9de9 87bc f270 89bc 53d9 cfbc 36ab 63bc
000002b0: a7c7 cdbc 6d2f c9bc 9153 12bd 43b3 99bc
000002c0: 2d0e 95bc 2e72 e0bc 154d 39bc 5bc5 95bc
000002d0: 9e4c a8bc 0fbd 69bc d3a6 8ebc 2646 d1bc
000002e0: 32b6 d8bc 8647 0ebd 5c5c 95bc bb6a b7bc
000002f0: 9633 5dbc 8f14 a1bc 1bf6 cbbc 6561 5cbc
00000300: d9a3 91bc b576 f8bc bd2e 5fbc ca37 8dbc
00000310: 0266 0dbd fe45 dabc 5160 88bb 5cb1 5bbc
00000320: 6a8f bfbc 3b2e 88bc 658d 61bc c527 b1bc
00000330: a564 8abc dac3 d8bc ed1d 87bc e89f a9bc
00000340: f0f4 b93c ff09 6fbc c9f0 93bc 8c11 70bc
00000350: d139 cfbc 6eb1 8bbc d390 8ebc 39f9 5abc
00000360: 290b 2ebc ec9a a5bc c26c 9abc 6687 a1bc
00000370: 3329 a3bc 06ae cdbc 0a54 8bbc b3eb 9ebc
00000380: dea2 b1bc d101 b8bc 5715 a6bc fc2f c5bc
00000390: b3e2 aebc a178 2bbc 5a72 15bc 32be 9abc
000003a0: 710c 99bc 746f f6bc e8e9 a1bc aea1 bebc
000003b0: eb40 fdbc 072b a0bc 8d8b a7bc e52e a1bc
000003c0: 73a8 4bbc acd1 b0bc d1fb 8ebc 7765 89bc
000003d0: 4035 d4bc c2d8 abbc a633 39bc bb42 b13b
000003e0: d8f9 90bc 36db a9bc 9704 c6bc 5e93 b9bc
000003f0: 6ca7 60bc 8a65 11bd e22a 90bc f756 a9bc
0.03863649 -0.0043045785 -0.00014940485 -0.024218688 0.038740907 0.0006366874 -0.018820502 0.026942557
-0.023590097 -0.0010341271 -0.01501173 -0.00010537593 -0.02056905 -0.01716904 -0.0033658063 -0.036432087
-7.559369e-05 -0.019203976 -0.021944337 -0.01531324 0.02009164 -0.021716135 -0.013668318 -0.019848097
-0.01468444 -0.013897189 0.04364707 0.0058401837 0.008768802 0.022732358 -0.014036302 -0.019276334
0.04443829 0.035482697 -0.0076413606 0.0021893284 -0.0119282305 -0.015815446 -0.04074989 0.03564658
0.0052884216 -0.0085478155 -0.00038436372 -0.01621035 0.04899976 0.018037342 0.0016075684 0.053926013
0.039008856 -0.00891379 -0.014173617 -0.017692603 -0.015150838 -0.037426725 -0.019355003 -0.00024904995
-0.011660426 0.022379188 -0.011386866 0.04188261 0.034354184 -0.011971411 -0.0061511314 -0.013793857
-0.023927582 -0.015411195 -0.014580362 -0.007971758 -0.0082639875 -0.035291594 -0.007342889 0.009113629
0.012492512 -0.018478591 -0.0022009555 0.005202271 -0.02031781 -0.020275546 -0.0066542984 -0.02305023
-0.01638228 -0.007887216 -0.012910924 -0.022715028 -0.011002617 0.053114872 -0.01745237 -0.020865994
-0.011035716 -0.017047904 0.025558928 0.017255252 -0.027261557 0.04625245 0.044856645 -0.016613748
-0.02274075 -0.016209925 -0.013207978 -0.005869203 -0.018589012 -0.014255037 -0.0152101 -0.025851253
-0.021289865 -0.021655686 -0.018731171 -0.027627544 -0.026156997 0.0052994546 -0.013449294 -0.017134352
-0.01515936 -0.014927442 -0.015139218 0.0066624666 -0.010935032 -0.019070664 -0.022363646 -0.017588107
-0.018082704 -0.016330048 -0.014843206 -0.017258946 -0.027811024 -0.023261853 -0.015378184 -0.031446338
-0.032450948 -0.0029422394 -0.009040583 -0.018764878 -0.022594633 -0.01603743 -0.007439151 -0.023826145
-0.020149726 -0.0171699 -0.02967659 -0.023558449 -0.014904543 -0.03420687 -0.01476456 -0.02420027
0.007378532 -0.018269783 -0.017038995 -0.027089318 -0.017036313 -0.013852233 -0.022375826 -0.008134946
-0.03662771 -0.014168905 -0.021576338 -0.021517418 -0.023201711 -0.017376564 -0.010369465 0.0077809407
0.0054166205 -0.017043438 -0.014432273 -0.034583513 -0.008428226 -0.02306723 -0.018779926 -0.017795645
-0.016590888 -0.01677749 -0.025372183 -0.0138958 -0.025119616 -0.024558747 -0.035724226 -0.018762236
-0.018195236 -0.027398195 -0.011309882 -0.018282583 -0.020544346 -0.0142662665 -0.017413532 -0.025546145
-0.026454065 -0.03473618 -0.018232517 -0.02238976 -0.013501069 -0.019663123 -0.024897626 -0.013450955
-0.017778324 -0.030330041 -0.013621983 -0.017238516 -0.03452111 -0.026644703 -0.0041618724 -0.013408985
-0.023383815 -0.016623607 -0.013766621 -0.021625409 -0.016893694 -0.026460577 -0.016493762 -0.020706132
0.022699803 -0.014589786 -0.018059151 -0.014652621 -0.025296124 -0.017052379 -0.017403042 -0.013365083
-0.010622778 -0.020215474 -0.018850688 -0.019717883 -0.019917106 -0.025107395 -0.017007846 -0.0193995
-0.021684106 -0.022461804 -0.020273848 -0.024070732 -0.021348333 -0.010465772 -0.009121502 -0.01888952
-0.01868269 -0.030082442 -0.019764856 -0.023270454 -0.030914744 -0.019551767 -0.020452285 -0.019675681
-0.012430298 -0.021584354 -0.01745406 -0.016772015 -0.025904298 -0.020977382 -0.011303818 0.005409566
-0.01769726 -0.02073441 -0.02417211 -0.022653278 -0.0137117915 -0.035497226 -0.017598573 -0.02067135

lrs.1 f4 [200]
00000000: fe14 92bc 5aa6 89bc 378f fdbc 1a00 b63c
00000010: 2750 09bd 9b95 28bc afed 033c 3ad1 afbb
00000020: 90e8 973c 5611 e53c 78e5 1fbb 928d a5bb
00000030: 8387 df3c b000 b2bb 4e0f 1f3b 0031 fabb
00000040: 9b5f 32bc e9a6 0e3d 8957 583c d3e9 413c
00000050: b1bd 10bc 3be6 8d3c bea2 0d3d 1a71 aa3c
00000060: 9e49 223d 0065 78bc 509f 8d3a c5de 973a
00000070: e7a3 78ba e524 033c 3f9f 22bd 0209 6c3c
00000080: b45b c33c 4e46 2c3d 0dd1 393c d3b5 48bc
00000090: a449 a13c b357 65bb 653b b73c 578e d23c
000000a0: 5ac1 233c 7a5f 113d 6de0 eb3c b43e 6d3b
000000b0: 487a 55bc 1060 aebc 59f7 c23c 5528 b7bc
000000c0: df2a 303c 1158 a63b e7c3 b0ba 51e5 a7bb
000000d0: 1b67 1a3d ca07 843c bc4c 06bd de66 2dbd
000000e0: c8d3 5ebc 450e 94bc ead8 b43b ec25 bbbc
000000f0: f335 13bc 7df1 afbc f84e 88bb 9049 3d3d
00000100: b093 0b3d 87ac f73c 5024 babc ee8d 98bc
00000110: 164b 2d3d e5c2 e9bc e185 083d eb30 b4bc
00000120: 23af 0b3c 8b43 87bc 0a98 0ebd 8aec f6ba
00000130: 6dcc de3b 7119 8ebc d6ce e6bc dc96 c53c
00000140: 9e88 f2bc f804 953c 9a85 99bc 59fc 973b
00000150: deca 0ebd c1a8 b3bc 4aff a0bb 162b 62bb
00000160: fc97 95bc 1cd5 093d ec6b 7b3c dcd1 6ebc
00000170: 74b8 f1bc 16bd 0eb9 f2e9 cbbc 0849 0bbb
00000180: f254 01bb bce8 f63c 52b2 023d 64bf b7bc
00000190: 44fd 8c3c 860a 01bb 9246 75bc 3840 16bb
000001a0: 2645 193b 2849 7abc 5085 573c e67e 9b3c
000001b0: 13a9 9138 ee33 a43c d791 c33b 5ca7 a2bc
000001c0: 7e33 5c3a f70c eb3c fc17 693c 541b 92bc
000001d0: f568 4c3d 7bcd 883b 4080 bdbc 3189 04bd
000001e0: 5947 aebc 554c 94bc 0c5d 8fbc 6077 7fbb
000001f0: c0cf 07bd 7229 a9ba 27ca abbc 7304 05bc
00000200: 6464 b8bc fe1a 78bc 8758 90bb bad5 c33a
00000210: 4263 aebb e335 babc 221a 4a3b 13fe 03bc
00000220: 7cb5 653d 5e4a eabb a9ee fd3b dc41 0bbc
00000230: 99e7 0abd 51b0 5dbc 77e3 bf3c 42ce 9b3c
00000240: d960 453c 007a 31bd b759 afbc 9654 f7ba
00000250: a604 213d bc25 66bb 4c59 6c3c 09da e2b9
00000260: 4315 d8ba 79f7 9d3c 4030 493d 9587 bcbb
00000270: 3d7d cd3c 7e1f 73bc 1329 063a e222 443d
00000280: 80a3 143c f133 2b3c 8eda 313c 236e 1a3d
00000290: 97c2 213c 8708 8c3c 0c29 cf3b d7f0 3bbc
000002a0: 0495 1abb 4ec4 b2bc 1270 203c fe28 033d
000002b0: e75d a93c 1932 20bc cce8 a73c 49ea cf3c
000002c0: 1796 3d3c bc2c 0d3b 11ce 2dbb 008e a6bc
000002d0: 289a 60bd 5620 86bc 9c7d bbbc e342 cdba
000002e0: f1c5 16bc c56b bebc 2df6 47ba 19b2 8bbc
000002f0: c173 3ebc e523 bcbb 00c0 893c 1372 e73b
00000300: 5933 9fbc 02da 6bba 19ea c2bc 2343 06bb
00000310: ab20 a4bc 9974 bdb9 bc94 f43b 3d84 1ebc
-0.017832275 -0.016802955 -0.03095208 0.022216845 -0.033523705 -0.010289575 0.008052274 -0.005365518
0.018543512 0.027962368 -0.0024398249 -0.005052277 0.027286297 -0.005432211 0.0024270597 -0.007635236
-0.010887052 0.034827147 0.013204464 0.011835533 -0.008834288 0.017321697 0.03457903 0.020805884
0.039620988 -0.015160799 0.0010804925 0.0011586776 -0.00094848726 0.008004402 -0.03970265 0.0144064445
0.023847438 0.042059235 0.0113413455 -0.0122503815 0.019688435 -0.00349949 0.022367189 0.025702639
0.009994829 0.035491444 0.028793538 0.0036200704 -0.013029642 -0.02128604 0.023799585 -0.022358099
0.010752409 0.0050764163 -0.0013486118 -0.005123772 0.037695985 0.016116995 -0.032788023 -0.04233443
-0.013600297 -0.01807321 0.0055190222 -0.022845231 -0.00898503 -0.021477455 -0.0041598044 0.046212733
0.034076393 0.030233635 -0.022722393 -0.018622365 0.042307936 -0.028535316 0.033330802 -0.021995982
0.008525643 -0.0165117 -0.034812964 -0.0018838805 0.006799272 -0.017346116 -0.028174799 0.024119787
-0.02960616 0.018190846 -0.018740464 0.0046382365 -0.034861438 -0.021931054 -0.0049132453 -0.0034510545
-0.018260948 0.033650503 0.015345555 -0.014576402 -0.0295069 -0.00013612615 -0.024891827 -0.0021253247
-0.001973447 0.030140273 0.03190834 -0.02243013 0.01721061 -0.001969011 -0.014970439 -0.002292646
0.0023387163 -0.015276231 0.013154343 0.018981408 6.945631e-05 0.020044293 0.005968313 -0.019855194
0.0008400007 0.028692706 0.01422691 -0.017835297 0.049904782 0.004174886 -0.023132443 -0.0323574
-0.021274256 -0.018102804 -0.017500423 -0.0038981065 -0.03315711 -0.0012906028 -0.020970417 -0.008118737
-0.022508807 -0.015143154 -0.0044050845 0.0014941015 -0.005321891 -0.022730773 0.003083833 -0.0080561815
0.05608128 -0.0071499785 0.007749398 -0.008499589 -0.033912275 -0.013530807 0.023423893 0.01901925
0.012047016 -0.04332924 -0.021405084 -0.0018869813 0.039311074 -0.0035117706 0.014425587 -0.00043268528
-0.0016485829 0.019283043 0.04911828 -0.0057534673 0.025084132 -0.014839051 0.0005117815 0.04788483
0.009072185 0.0104493955 0.01085533 0.03770269 0.009873054 0.01709391 0.006322032 -0.011470995
-0.0023587355 -0.021822121 0.009792345 0.032021515 0.020674659 -0.009777569 0.020496748 0.02538027
0.011571429 0.0021541556 -0.002652053 -0.020331383 -0.054834515 -0.01637284 -0.022887044 -0.0015660193
-0.009202466 -0.023244748 -0.00076279306 -0.017052697 -0.011624278 -0.0057415836 0.016815186 0.0070631593
-0.019433664 -0.0008997024 -0.023793267 -0.0020486794 -0.020035109 -0.0003613576 0.0074640196 -0.009675083

lrs.2 f4 [50, 100]
00000000: af5a c43d 04c1 c63d 7ff4 ce3d 9f55 d03d
00000010: 31ba d03d 2605 d13d a663 cb3d 7c7d cc3d
00000020: 109e ce3d 6bd0 ce3d 4ce8 c83d 3d8f c63d
00000030: 3610 d23d 181e cf3d 9386 c73d 11f7 cd3d
00000040: d062 d03d 1683 d13d d11e d33d 8520 cd3d
00000050: 5424 c43d e82f c63d 5c9c ca3d 935f d13d
00000060: cca1 d13d 14fe cf3d 8ad0 c73d 8df5 d23d
00000070: 90ab c03d 2c86 cc3d fd56 cd3d c90b d23d
00000080: 0f63 d43d 37b8 d13d abf0 c23d 5685 c53d
00000090: 58a1 cd3d 51e5 cb3d d73b c83d 1082 cf3d
000000a0: ceab d73d 04e5 d13d 8c88 c43d f3a5 cc3d
000000b0: f513 cd3d 8feb c83d 7278 cc3d 0a02 c73d
000000c0: 360e ce3d 2844 ce3d 7e7c cd3d a926 b33d
000000d0: db06 c73d ec6f cf3d 08d5 c83d 302e d33d
000000e0: 6f21 d03d 396a d23d bbac ce3d 7981 ce3d
000000f0: f16e d23d e97f cc3d 2f13 ce3d 02fe c83d
00000100: f786 c93d 3634 d03d d346 d13d 09c5 cd3d
00000110: 5641 d83d e3c9 cd3d 7772 d13d b491 cb3d
00000120: 68a4 ce3d 348c c63d e11c d43d 57e0 ca3d
00000130: 8c2a c93d 8608 c83d 72a4 cb3d 7c68 cd3d
00000140: cc62 cb3d 670e cf3d ab3e ca3d c480 ce3d
00000150: b1b9 c53d 2ec0 ca3d dd3c ca3d 2472 cd3d
00000160: ee53 cf3d fff4 cb3d d348 cc3d f0a1 d83d
00000170: 1441 c63d f743 cf3d 07ce d33d 6ad0 d23d
00000180: 563f cd3d 88e5 d03d cfd7 cd3d 74f8 c13d
00000190: a9be a93d ce01 9b3d b0ac b23d 7936 a23d
000001a0: 7ae9 c53d 9965 b13d 2fc2 b73d 2888 b83d
000001b0: ad78 ad3d ff5e 923d d7e4 b73d 730f b53d
000001c0: 17c7 9f3d c4d2 b93d f49b a63d 05f2 af3d
000001d0: 7bc3 a73d 1831 b23d 6fd3 b73d 9795 953d
000001e0: 650b a73d b2c8 963d b076 9e3d 8799 ab3d
000001f0: 63fd b23d 1bea 9b3d f64a ab3d 95c2 b73d
00000200: 08c4 b53d 6c7c a93d 8266 903d c6c2 a93d
00000210: d9ee b13d c698 b63d 7b4b aa3d e57a ba3d
00000220: a24b b23d 27e0 ac3d 71b3 b23d 1b59 b43d
00000230: 955b b63d cddc af3d 168b 9f3d b8b0 ad3d
00000240: 57ad b03d 45c2 af3d db87 a13d 0dea ae3d
00000250: 6f21 b73d d600 b53d 7ce2 a33d 66a2 b43d
00000260: 4715 a23d 15b2 ac3d 5880 b03d e1aa b23d
00000270: 03c9 a23d 5a43 b53d 77c3 bd3d b46e a33d
00000280: 2727 ac3d fb2a 9f3d ac97 953d 63f9 a43d
00000290: e802 a33d 120d 9d3d ae82 bb3d 39f6 a93d
000002a0: 76a6 963d 67f5 aa3d 027b b53d 25ab af3d
000002b0: 76d8 b53d 9de5 ae3d 4506 ae3d 171a aa3d
000002c0: 7834 a13d d545 b03d 790e aa3d 5af0 a93d
000002d0: 0271 a83d d617 8b3d ad33 ae3d b97c aa3d
000002e0: 897a a73d cd86 9e3d 4f18 ac3d 606a 903d
000002f0: 39b8 b73d 3d25 913d 83c8 ab3d 5ffb a53d
00000300: db83 ac3d 68a0 a13d 9c35 b13d 7d15 b83d
00000310: 8b9e aa3d 1340 b53d edb1 b13d 9935 a73d
00000320: 52e0 8b3d 3a1b a23d d753 ab3d 6f52 8b3d
00000330: ad5f 9c3d c685 993d c97c 983d ef3d 793d
00000340: cdf1 f33c 1ec9 803d 611c 8b3d 4a82 943d
00000350: 356d 383d c171 923d b8de 5e3d ade1 9b3d
00000360: 64be 833d d114 473d d118 8d3d 7620 8d3d
00000370: 33cb 893d bcc4 8f3d e7bd 7f3d 0166 703d
00000380: c2ab 8c3d affd 933d 0ced 993d 63e2 973d
00000390: 6f55 8d3d 6aa8 823d 8fff 973d 9cf1 883d
000003a0: 416b 993d e2fe 8f3d feb6 643d 59c0 973d
000003b0: 86d0 8f3d 60d7 863d 53ca 9c3d b7bc a33d
000003c0: d0c8 863d 887a 863d f261 a63d e12e 9a3d
000003d0: eb18 873d 4ddf 873d 5690 a43d 1474 ab3d
000003e0: 9e63 a03d 67ff 6d3d 4b57 863d eccd 8b3d
000003f0: 3fcc 863d 1d2f 903d a107 8c3d c2d8 643d
0.09587609 0.097047836 0.10105228 0.10172581 0.10191763 0.1020606 0.09931116 0.09984872
0.10088742 0.10098346 0.09809932 0.09695289 0.10256998 0.10113162 0.09742465 0.1005689
0.10175097 0.10230081 0.10308612 0.10015968 0.095772415 0.09677106 0.098931044 0.102233075
0.102359384 0.101558834 0.097565725 0.10300741 0.09407723 0.09986529 0.10026357 0.10256154
0.103704564 0.10240214 0.0951856 0.096445724 0.100405395 0.09955848 0.097770385 0.10132229
0.10530816 0.102487594 0.09596357 0.0999259 0.10013572 0.09810554 0.099839106 0.09717186
0.10061304 0.100715935 0.100335106 0.08747608 0.097181045 0.10128769 0.098062575 0.10311544
0.10162627 0.102741666 0.100915395 0.10083289 0.10275067 0.099853344 0.10062253 0.09814073
0.098401956 0.101662084 0.10218587 0.10047347 0.10559337 0.100482725 0.102269106 0.099399
0.10089952 0.096947104 0.10357071 0.09906071 0.09822568 0.09767251 0.09943475 0.100296944
0.099309534 0.10110169 0.09875234 0.10083154 0.096545584 0.098999366 0.0987489 0.10031536
0.1012343 0.09958839 0.099748276 0.10577762 0.096803814 0.10120385 0.10342031 0.10293658
0.10021846 0.102000296 0.10050928 0.09471217 0.08288319 0.075687036 0.08724344 0.07920546
0.09663673 0.08661956 0.089725845 0.09010345 0.08470283 0.07147025 0.089791946 0.08840837
0.07801645 0.090734035 0.081352144 0.085910834 0.08191582 0.0870077 0.08975875 0.073039226
0.0815647 0.07362498 0.077374816 0.083788924 0.08739736 0.076130114 0.08363907 0.089726605
0.088752806 0.08275685 0.07050802 0.08289103 0.08688135 0.08915858 0.08315178 0.091054715
0.08705832 0.08441191 0.08725632 0.08806058 0.08904187 0.08587036 0.077902004 0.08480972
0.08626812 0.08581976 0.078872405 0.085407354 0.08941924 0.0883805 0.08002183 0.088200375
0.079142146 0.08432404 0.0861823 0.08723999 0.07948496 0.08850737 0.092657976 0.07980099
0.08405905 0.0777187 0.0730432 0.08055379 0.07959539 0.076685086 0.091557845 0.08298916
0.07355969 0.08347588 0.088613525 0.08577565 0.08879177 0.08539889 0.084972896 0.083057575
0.07871336 0.086070694 0.08303542 0.082977965 0.082246795 0.06791656 0.0850595 0.0832457
0.081776686 0.07740555 0.08403074 0.070515394 0.089706846 0.07087181 0.08387854 0.08104586
0.08423587 0.07891923 0.08652803 0.089884736 0.08331021 0.08850112 0.08676515 0.0816452
0.06829895 0.07915349 0.083656006 0.06802832 0.07635436 0.074962184 0.07445676 0.06085008
0.029778386 0.0628836 0.06792522 0.07251413 0.045026023 0.07150603 0.05441162 0.076114036
0.064327985 0.048603836 0.06889499 0.06890957 0.0672821 0.07019946 0.062436964 0.05869103
0.06868698 0.07226121 0.07515916 0.07416227 0.06901061 0.06379779 0.07421791 0.06686708
0.0749116 0.07031037 0.055838577 0.07409734 0.070221946 0.06584048 0.07655778 0.07994979
0.06581271 0.0656634 0.0812415 0.07528473 0.065965496 0.06634388 0.080353424 0.083717495
0.078315005 0.0581049 0.065596186 0.06826386 0.065819256 0.07040236 0.068373926 0.05587078

lrs.3 f4 [50]
00000000: b9e9 7f3d 51c6 713d 84f6 103d 7f2f 503d
00000010: bbf5 203d 967c 973d 5e2d 6b3c 12c7 113d
00000020: 6ae4 be3d a326 4c3d 49ad 853b 5216 34bc
00000030: 18e7 293d 73a1 883c 82d9 a63d 5187 8f3c
00000040: 1680 ea3c 3895 8d3d b749 2a3d 1454 ac3d
00000050: 267b c83c 0a03 873d d551 973d 08c9 c23c
00000060: 3c3d 7a3d ef13 7d3d 535d a43d 6303 023d
00000070: 4da0 2b3d ebfc 9a3d ba55 f53c c11d 6d3d
00000080: b2c3 1b3d 3d56 b83b bdc9 a93d 1c39 263d
00000090: fb6c 573d d6c7 bd3d 501e 833d 4c8b 5c3c
000000a0: aa4d 993d 1eee 0e3d 96ac b43d 0671 713d
000000b0: b491 ac3d be36 913d 0b50 b13d a859 093c
000000c0: 7f1b 9e3d ecd1 be3d
0.062478755 0.05902702 0.035391346 0.050826546 0.039296847 0.0739681 0.014354078 0.03559024
0.0932091 0.049841534 0.004079495 -0.01099165 0.041480154 0.016678547 0.08146955 0.017520579
0.02862553 0.06913227 0.041574206 0.08414474 0.024472784 0.065923765 0.07388655 0.0237775
0.061093554 0.06178659 0.08025613 0.03174151 0.04190092 0.075677715 0.029948104 0.057889704
0.038028426 0.005625515 0.08290432 0.040581807 0.052594166 0.09266631 0.06402266 0.013460945
0.07485516 0.034895055 0.08821981 0.05894568 0.08426228 0.07090519 0.08657845 0.008383192
0.07720088 0.09317383

lrs.4 f4 [1, 250]
00000000: 4515 cebb 5c26 16bc b7a4 e53c ecd4 d03c
00000010: 8a5f fb3c f481 11bd ee9a 38ba ddae 213d
00000020: f6af ddb7 bfc1 af3c a400 5d3d 8526 133d
00000030: fb97 a5bc a656 643c f01c b7bb 8ac6 fd3c
00000040: ea87 c13c 74cf 533b e079 ea3c cad4 3bbd
00000050: 9a57 65bc 9db6 4e3c 00a1 7a3c 65d6 90bb
00000060: ed0a 08bc 5641 e43c 9e5d 403d ba11 ffbc
00000070: a722 4d3d f619 97bc a3e3 aabc 1e5f 243d
00000080: 6cce bdbc 3a3d 193c e146 c8bc 6031 173c
00000090: c611 87bc 1839 343c 9dd1 953c 512a 933c
000000a0: b855 70bc ec38 14bd 2dae 063c 42bd 2e3c
000000b0: 5c33 303b a56d 303c ad1e cfb9 83a5 afbb
000000c0: 31c1 b23c 7f54 0e3d e0ec af3c aa69 203d
000000d0: 6df0 693c e5b3 11bd 31dd 7cba 67ed 283d
000000e0: baf6 8b3d 9fdc 8b3b 8e7d 943b 09d5 db3c
000000f0: 81f4 023b 2ecd 83bc c6e9 a93c 46e2 dd3c
00000100: 778c 0f3d ac4e 69bc 3cb8 433d 5fe6 9c3c
00000110: d0ca 283c 7a47 2bbc 02ba 2abd 19fa a23c
00000120: 5fc0 11bb 47e1 39bd 952b 803b 36b6 02bd
00000130: 09ed 443d a4bf 38bd bb73 d2bb a214 073d
00000140: a846 c13c e0d3 4e3d 8b44 00bc 144d f6bb
00000150: a798 d03c 1215 8fbd 8b82 a03c 8c15 d73c
00000160: 9dbc f73c 6af5 19bd ac75 233d dac1 2a3c
00000170: 3e93 66bc ea6e 373d 45ed 0b3d 80cc 6cbd
00000180: 68d8 543d 249f 283d 70de 5dbd 4579 453c
00000190: 64ab 323d 1537 32bb b164 1e3c e254 5e3c
000001a0: 23cb 77bc ecb5 be3c 11a9 203c 7cca 0bbd
000001b0: ec35 3fba f3d7 113c f155 4e3d 5bae af3b
000001c0: d343 103d 2ae8 01bc 12bc b5bb da16 2cbd
000001d0: 9115 faba db86 5f3d 4da2 b23c 391e 043d
000001e0: 19c5 c63c 11a0 da3c 33b7 783c 556c 623d
000001f0: db9a f53c 0fc5 ef3c 3af5 d5bb 13e7 4c3d
00000200: 6567 98bc c793 923c 0be5 bf3c d3ba da3c
00000210: d9c6 1e3d f006 043d 52f4 9c3c 7804 943b
00000220: 8a73 02bd fd84 103d 6a45 1a3c 9c87 053c
00000230: c3e6 24bc 8fc6 273d 1b51 d8ba b7eb 41bc
00000240: d8ea 0e3d a47d c2ba f9d6 c53c b0e1 e4bc
00000250: c469 663d 6b33 153d 92e6 543d 3ba4 09bd
00000260: 1c5b 74bd 85b6 a23c ef11 633b c80d fa3c
00000270: 7e59 d1bb 8e44 9dba b9fa 313c ebbc dcbc
00000280: c80f c13c 3f8c 6abd 2a3d e03c 7ec0 603c
00000290: 2ef0 e6bc 46e3 063d b4a8 84bc fc0a 4b3d
000002a0: 7b55 36bd e75b f63c 4adf edbc c85f 073c
000002b0: 8222 153c a00a 6a3d fcdc a73b 7bcb 923c
000002c0: d6dd 4f3d fc8b 083d 0663 60bc 0f42 403d
000002d0: 5d6c da3c ff88 40bd 8c4b 853d 0aab 503d
000002e0: 50be 413d 3a00 d63c 7c15 e93c 007c f4bb
000002f0: dc75 a93c 9461 81bd 43ef 1d3b 28a1 d6bc
00000300: fb48 5f3d e3ce 903c 8b56 7f3b 4d43 073d
00000310: b705 df3b 1d3a 3d3d 0377 613c 383b 7c3c
00000320: bdfb ce3d 0027 7a3d 1242 a23d 276f c83d
00000330: 487d c03d 14f8 b83d ee3d 913d d9f5 cb3d
00000340: b532 ca3d 8b1a b83d dc7f e83c af5e a13d
00000350: 30d1 943d f305 c83d cca8 d03d 57d8 9b3d
00000360: 36d2 d83d ad83 c03d 36dd a23d e42d ae3d
00000370: 7c65 ba3d d985 be3d b09c a53d e572 9f3d
00000380: dc79 c43d a7d9 de3d 92d9 d83d 00c3 ca3d
00000390: 0c36 d53d fe2a c53d dc6d a13d cebb ce3d
000003a0: 095c af3d 2dde b53d 1034 ad3d 0abb c83d
000003b0: b6c7 b63d c8e9 ec3d 6744 6e3d 356a cf3d
000003c0: a359 a43d 33e1 ac3d cc42 b53d 7adb cf3d
000003d0: d1fc de3d 77f8 8f3d 6e82 b03d 1615 bf3d
000003e0: 1e37 b73d ae8f ee3d
-0.0062891566 -0.009164419 0.028032644 0.025492154 0.030685205 -0.035524324 -0.00070421293 0.039473403
-2.6427191e-05 0.02145469 0.05395569 0.035925407 -0.020214071 0.013936674 -0.0055881664 0.03097846
0.02362438 0.0032319697 0.028622568 -0.04585723 -0.013997937 0.012616781 0.015297174 -0.004420089
-0.008303386 0.027863186 0.04696428 -0.031136382 0.050081875 -0.018444996 -0.020860499 0.040129773
-0.023169719 0.009352976 -0.02444786 0.0092280805 -0.016487967 0.01099994 0.018288428 0.017964514
-0.014668874 -0.036187097 0.008220238 0.01066524 0.0026886081 0.010768329 -0.00039504972 -0.0053603067
0.021820636 0.03474855 0.021475255 0.03916327 0.014278513 -0.03557195 -0.0009645997 0.04124203
0.06834169 0.0042682434 0.004531569 0.026834982 0.0019982161 -0.016089048 0.020741355 0.027085435
0.035046067 -0.014239948 0.04778312 0.019152818 0.0103022605 -0.010454053 -0.041681297 0.019894646
-0.0022239906 -0.045380857 0.0039114454 -0.03191205 0.048077617 -0.045104638 -0.0064224876 0.03297866
0.023593262 0.05049503 -0.007828842 -0.0075165126 0.025463415 -0.06986441 0.019593498 0.026255392
0.030241305 -0.03758756 0.039907143 0.010422194 -0.014073191 0.04478351 0.034161825 -0.057812214
0.051964194 0.041167393 -0.05416721 0.012052839 0.043620482 -0.0027193476 0.009667561 0.013570042
-0.015124115 0.023280106 0.009805934 -0.03412865 -0.0007294107 0.008901584 0.05037493 0.005361361
0.035220932 -0.007928887 -0.0055461014 -0.04201398 -0.0019079914 0.054571968 0.021805907 0.032255385
0.024263905 0.026687654 0.015180397 0.055279095 0.029981067 0.02926877 -0.0065294774 0.050025057
-0.01860399 0.017892731 0.023424646 0.026700413 0.038763855 0.03223318 0.01915947 0.0045171343
-0.031848468 0.035283078 0.009415964 0.008150008 -0.0100647835 0.040960845 -0.0016503664 -0.011835984
0.034891933 -0.0014838469 0.024150359 -0.027939647 0.05625321 0.03642599 0.0519777 -0.033603888
-0.0596572 0.019862423 0.003464814 0.03052415 -0.006388842 -0.001199858 0.010863 -0.026945552
0.023567095 -0.057262655 0.027372915 0.013717769 -0.028190698 0.03293159 -0.016193725 0.049571022
-0.044515114 0.03007312 -0.029037137 0.008262582 0.009102466 0.05713904 0.005122779 0.017919293
0.05074867 0.033336625 -0.013695484 0.046938 0.026663 -0.04700565 0.0650855 0.050944366
0.047300637 0.026123155 0.028452627 -0.007461071 0.020686083 -0.0631744 0.002409891 -0.026199892
0.05451296 0.017676776 0.0038961496 0.033023167 0.006806101 0.046198 0.013761285 0.015394978
0.10106609 0.06107235 0.07922758 0.097868256 0.093988955 0.09031692 0.0709189 0.09959001
0.09872953 0.08989438 0.02838128 0.078793876 0.07266462 0.0976676 0.101884454 0.07609623
0.105869696 0.09400115 0.07952349 0.08504847 0.09101388 0.09302873 0.080865264 0.07785586
0.09593555 0.10881358 0.10588373 0.099004745 0.10410699 0.09627341 0.07882282 0.10094415
0.08562476 0.08880267 0.08457196 0.098013 0.089248106 0.11568028 0.058170702 0.10127679
0.08024909 0.08441391 0.08850631 0.10149284 0.10888065 0.07029813 0.086186275 0.09330194
0.0894606 0.116484985
